…
    'repeat_id': 1,
    'runner': 'episode',
    'runner_log_interval': 1000,
    'save_model': False,
    'save_model_interval': 50000,
    'save_replay': False,
    'seed': 1976,
    'standardise_returns': False,
    'standardise_rewards': True,
    't_max': 20050000,
    'target_update_interval_or_tau': 200,
    'test_greedy': True,
    'test_interval': 50000,
    'test_nepisode': 100,
    'use_cuda': False,
    'use_rnn': False,
    'use_tensorboard': False}
[2022-07-15 13:36:53.435] [[32minfo[39m] No level specified, will use the first level described in the GDY.
MIXER
QMixer(
  (hyper_w_1): Linear(in_features=400, out_features=36, bias=True)
  (hyper_w_final): Linear(in_features=400, out_features=18, bias=True)
  (hyper_b_1): Linear(in_features=400, out_features=18, bias=True)
  (V): Sequential(
    (0): Linear(in_features=400, out_features=18, bias=True)
    (1): ReLU()
    (2): Linear(in_features=18, out_features=1, bias=True)
  )
)
printing deepcopy input
QMixer(
  (hyper_w_1): Linear(in_features=400, out_features=36, bias=True)
  (hyper_w_final): Linear(in_features=400, out_features=18, bias=True)
  (hyper_b_1): Linear(in_features=400, out_features=18, bias=True)
  (V): Sequential(
    (0): Linear(in_features=400, out_features=18, bias=True)
    (1): ReLU()
    (2): Linear(in_features=18, out_features=1, bias=True)
  )
)
printing deepcopy input
OrderedDict()
printing deepcopy input
OrderedDict()
printing deepcopy input
set()
printing deepcopy input
OrderedDict()
printing deepcopy input
OrderedDict()
printing deepcopy input
OrderedDict()
printing deepcopy input
OrderedDict()
printing deepcopy input
OrderedDict()
printing deepcopy input
OrderedDict([('hyper_w_1', Linear(in_features=400, out_features=36, bias=True)), ('hyper_w_final', Linear(in_features=400, out_features=18, bias=True)), ('hyper_b_1', Linear(in_features=400, out_features=18, bias=True)), ('V', Sequential(
  (0): Linear(in_features=400, out_features=18, bias=True)
  (1): ReLU()
  (2): Linear(in_features=18, out_features=1, bias=True)
))])
printing deepcopy input
Linear(in_features=400, out_features=36, bias=True)
printing deepcopy input
OrderedDict([('weight', Parameter containing:
tensor([[-0.0424,  0.0430,  0.0101,  ...,  0.0062, -0.0333, -0.0445],
        [-0.0328, -0.0110, -0.0176,  ...,  0.0014, -0.0308, -0.0492],
        [ 0.0154, -0.0339, -0.0246,  ..., -0.0486, -0.0276,  0.0181],
…
